…
8M [00:09<00:00, 63.6MB/s]\n"]}]},{"cell_type":"code","source":["# move the model to GPU, if available\n","device = torch.device(\"cuda\" if torch.cuda.is_available() else \"cpu\")\n","\n","vgg.to(device)"],"metadata":{"colab":{"base_uri":"https://localhost:8080/"},"id":"hksEltUPjwy6","executionInfo":{"status":"ok","timestamp":1717942255285,"user_tz":300,"elapsed":143,"user":{"displayName":"Awwal Adeyemo","userId":"06326190203182731687"}},"outputId":"77c2c455-51f2-4c8e-ef0e-67a44aad37e3"},"execution_count":4,"outputs":[{"output_type":"execute_result","data":{"text/plain":["Sequential(\n","  (0): Conv2d(3, 64, kernel_size=(3, 3), stride=(1, 1), padding=(1, 1))\n","  (1): ReLU(inplace=True)\n","  (2): Conv2d(64, 64, kernel_size=(3, 3), stride=(1, 1), padding=(1, 1))\n","  (3): ReLU(inplace=True)\n","  (4): MaxPool2d(kernel_size=2, stride=2, padding=0, dilation=1, ceil_mode=False)\n","  (5): Conv2d(64, 128, kernel_size=(3, 3), stride=(1, 1), padding=(1, 1))\n","  (6): ReLU(inplace=True)\n","  (7): Conv2d(128, 128, kernel_size=(3, 3), stride=(1, 1), padding=(1, 1))\n","  (8): ReLU(inplace=True)\n","  (9): MaxPool2d(kernel_size=2, stride=2, padding=0, dilation=1, ceil_mode=False)\n","  (10): Conv2d(128, 256, kernel_size=(3, 3), stride=(1, 1), padding=(1, 1))\n","  (11): ReLU(inplace=True)\n","  (12): Conv2d(256, 256, kernel_size=(3, 3), stride=(1, 1), padding=(1, 1))\n","  (13): ReLU(inplace=True)\n","  (14): Conv2d(256, 256, kernel_size=(3, 3), stride=(1, 1), padding=(1, 1))\n","  (15): ReLU(inplace=True)\n","  (16): Conv2d(256, 256, kernel_size=(3, 3), stride=(1, 1), padding=(1, 1))\n","  (17): ReLU(inplace=True)\n","  (18): MaxPool2d(kernel_size=2, stride=2, padding=0, dilation=1, ceil_mode=False)\n","  (19): Conv2d(256, 512, kernel_size=(3, 3), stride=(1, 1), padding=(1, 1))\n","  (20): ReLU(inplace=True)\n","  (21): Conv2d(512, 512, kernel_size=(3, 3), stride=(1, 1), padding=(1, 1))\n","  (22): ReLU(inplace=True)\n","  (23): Conv2d(512, 512, kernel_size=(3, 3), stride=(1, 1), padding=(1, 1))\n","  (24): ReLU(inplace=True)\n","  (25): Conv2d(512, 512, kernel_size=(3, 3), stride=(1, 1), padding=(1, 1))\n","  (26): ReLU(inplace=True)\n","  (27): MaxPool2d(kernel_size=2, stride=2, padding=0, dilation=1, ceil_mode=False)\n","  (28): Conv2d(512, 512, kernel_size=(3, 3), stride=(1, 1), padding=(1, 1))\n","  (29): ReLU(inplace=True)\n","  (30): Conv2d(512, 512, kernel_size=(3, 3), stride=(1, 1), padding=(1, 1))\n","  (31): ReLU(inplace=True)\n","  (32): Conv2d(512, 512, kernel_size=(3, 3), stride=(1, 1), padding=(1, 1))\n","  (33): ReLU(inplace=True)\n","  (34): Conv2d(512, 512, kernel_size=(3, 3), stride=(1, 1), padding=(1, 1))\n","  (35): ReLU(inplace=True)\n","  (36): MaxPool2d(kernel_size=2, stride=2, padding=0, dilation=1, ceil_mode=False)\n",")"]},"metadata":{},"execution_count":4}]},{"cell_type":"code","source":["def load_image(img_path, max_size=400, shape=None):\n","    ''' Load in and transform an image, making sure the image\n","       is <= 400 pixel
…
